…
. . Let&#39;s have a look at our model using Hooks. We print the layers and the shapes of their outputs. . #collapse_show def model_summary(run, learn, data, find_all=False): xb,yb = get_batch(data.valid_dl, run) device = next(learn.model.parameters()).device#Model may not be on the GPU yet xb,yb = xb.to(device),yb.to(device) mods = find_modules(learn.model, is_lin_layer) if find_all else learn.model.children() f = lambda hook,mod,inp,out: print(f&quot;{mod} n{out.shape} n&quot;) with Hooks(mods, f) as hooks: learn.model(xb) . . #collapse_show model_summary(run, learn, data) . . Sequential( (0): Conv2d(3, 16, kernel_size=(3, 3), stride=(1, 1), padding=(1, 1), bias=False) (1): GeneralRelu() (2): BatchNorm2d(16, eps=1e-05, momentum=0.1, affine=True, track_running_stats=True) ) torch.Size([128, 16, 128, 128]) Sequential( (0): Conv2d(16, 32, kernel_size=(3, 3), stride=(2, 2), padding=(1, 1), bias=False) (1): GeneralRelu() (2): BatchNorm2d(32, eps=1e-05, momentum=0.1, affine=True, track_running_stats=True) ) torch.Size([128, 32, 64, 64]) Sequential( (0): Conv2d(32, 64, kernel_size=(3, 3), stride=(2, 2), padding=(1, 1), bias=False) (1): GeneralRelu() (2): BatchNorm2d(64, eps=1e-05, momentum=0.1, affine=True, track_running_stats=True) ) torch.Size([128, 64, 32, 32]) Sequential( (0): Conv2d(64, 64, kernel_size=(3, 3), stride=(2, 2), padding=(1, 1), bias=False) (1): GeneralRelu() (2): BatchNorm2d(64, eps=1e-05, momentum=0.1, affine=True, track_running_stats=True) ) torch.Size([128, 64, 16, 16]) Sequential( (0): Conv2d(64, 64, kernel_size=(3, 3), stride=(2, 2), padding=(1, 1), bias=False) (1): GeneralRelu() (2): BatchNorm2d(64, eps=1e-05, momentum=0.1, affine=True, track_running_stats=True) ) torch.Size([128, 64, 8, 8]) Sequential( (0): Conv2d(64, 128, kernel_size=(3, 3), stride=(2, 2), padding=(1, 1), bias=False) (1): GeneralRelu() (2): BatchNorm2d(128, eps=1e-05, momentum=0.1, affine=True, track_running_stats=True) ) torch.Size([128, 128, 4, 4]) Sequential( (0): Conv2d(128, 256, kernel_size=(3, 3), stride=(2, 2), padding=(1, 1), bias=False) (1): GeneralRelu() (2): BatchNorm2d(256, eps=1e-05, momentum=0.1, affine=True, track_running_stats=True) ) torch.Size([128, 256, 2, 2]) AdaptiveAvgPool2d(output_size=1) torch.Size([128, 256, 1, 1]) Lambda() torch.Size([128, 256]) Linear(in_features=256, out_features=10, bias=True) torch.Size([128, 10]) . And we can train the model: . #collapse %time run.fit(5, learn) . . train: [1.7670042952661316, tensor(0.3925, device=&#39;cuda:0&
…
recursive function. We can use sum(list, []) to concatenate the lists the function finds (sum applies the + operate between the elements of the list you pass it, beginning with the initial state in the second argument). . #collapse_show def find_modules(m, cond): if cond(m): return [m] a = sum([find_modules(o,cond) for o in m.children()],[]) print(a) return a def is_lin_layer(l): lin_layers = (nn.Conv1d, nn.Conv2d, nn.Conv3d, nn.Linear, nn.ReLU) return isinstance(l, lin_layers) . . #collapse_show mods = find_modules(learn.model, lambda o: isinstance(o,ConvLayer)) . . [] [] [] [ConvLayer( (conv): Conv2d(1, 8, kernel_size=(5, 5), stride=(2, 2), padding=(2, 2)) (relu): GeneralRelu() ), ConvLayer( (conv): Conv2d(8, 16, kernel_size=(3, 3), stride=(2, 2), padding=(1, 1)) (relu): GeneralRelu() ), ConvLayer( (conv): Conv2d(16, 32, kernel_size=(3, 3), stride=(2, 2), padding=(1, 1)) (relu): GeneralRelu() ), ConvLayer( (conv): Conv2d(32, 64, kernel_size=(3, 3), stride=(2, 2), padding=(1, 1)) (relu): GeneralRelu() ), ConvLayer( (conv): Conv2d(64, 64, kernel_size=(3, 3), stride=(2, 2), padding=(1, 1)) (relu): GeneralRelu() )] . #collapse_show mods . . [ConvLayer( (conv): Conv2d(1, 8, kernel_size=(5, 5), stride=(2, 2), padding=(2, 2)) (relu): GeneralRelu() ), ConvLayer( (conv): Conv2d(8, 16, kernel_size=(3, 3), stride=(2, 2), padding=(1, 1)) (relu): GeneralRelu() ), ConvLayer( (conv): Conv2d(16, 32, kernel_size=(3, 3), stride=(2, 2), padding=(1, 1)) (relu): GeneralRelu() ), ConvLayer( (conv): Conv2d(32, 64, kernel_size=(3, 3), stride=(2, 2), padding=(1, 1)) (relu): GeneralRelu() ), ConvLayer( (conv): Conv2d(64, 64, kernel_size=(3, 3), stride=(2, 2), padding=(1, 1)) (relu): GeneralRelu() )] . This is a helper function to grab the mean and std of the output of a hooked layer. . #collapse_show def append_stat(hook, mod, inp, outp): d = outp.data hook.mean,hook.std = d.mean().item(),d.std().item() . . #collapse_show mdl = learn.model.cuda() . . So now we can look at the mean and std of the conv layers of
…
ide=stride, bias=not bn), GeneralRelu(**kwargs)] if bn: layers.append(RunningBatchNorm(nf)) print(**kwargs) return nn.Sequential(*layers) . . #collapse def get_learn_run(nfs, data,conv_dim,n_res_block, lr, layer, cbs=None, opt_func=None, uniform=False, **kwargs): model = get_cnn_model(data, nfs, layer,conv_dim,n_res_block, **kwargs) init_cnn(model, uniform=False) return get_runner(model, data, lr=lr, cbs=cbs, opt_func=opt_func) . . #collapse nfs = [8,16,32,64] . . #collapse learn,run = get_learn_run(nfs, data, 64,1,0.4, conv_rbn, cbs=cbfs) . . Sequential( (0): Resblock( (conv1): Sequential( (0): Conv2d(64, 64, kernel_size=(3, 3), stride=(2, 2), padding=(1, 1), bias=False) (1): BatchNorm2d(64, eps=1e-05, momentum=0.1, affine=True, track_running_stats=True) ) (conv2): Sequential( (0): Conv2d(64, 64, kernel_size=(3, 3), stride=(2, 2), padding=(1, 1), bias=False) (1): BatchNorm2d(64, eps=1e-05, momentum=0.1, affine=True, track_running_stats=True) ) ) ) [Sequential( (0): Conv2d(1, 8, kernel_size=(5, 5), stride=(2, 2), padding=(2, 2), bias=False) (1): GeneralRelu() (2): RunningBatchNorm() ), Sequential( (0): Conv2d(8, 16, kernel_size=(3, 3), stride=(2, 2), padding=(1, 1), bias=False) (1): GeneralRelu() (2): RunningBatchNorm() ), Sequential( (0): Conv2d(16, 32, kernel_size=(3, 3), stride=(2, 2), padding=(1, 1), bias=False) (1): GeneralRelu() (2): RunningBatchNorm() ), Sequential( (0): Conv2d(32, 64, kernel_size=(3, 3), stride=(2, 2), padding=(1, 1), bias=False) (1): GeneralRelu() (2): RunningBatchNorm() ), Resblock( (conv1): Sequential( (0): Conv2d(64, 64, kernel_size=(3, 3), stride=(2, 2), padding=(1, 1), bias=False) (1): BatchNorm2d(64, eps=1e-05, momentum=0.1, affine=True, track_running_stats=True) ) (conv2): Sequential( (0): Conv2d(64, 64, kernel_size=(3, 3), stride=(2, 2), padding=(1, 1), bias=False) (1): BatchNorm2d(64, eps=1e-05, momentum=0.1, affine=True, track_running_stats=True) ) ), AdaptiveAvgPool2d(output_size=1), Lambda(), Dropout(p=0.4, inplace=False), Linear(in_features=64, out_features=10, bias=True)] . learn.model . Sequential( (0): Sequential( (0): Conv2d(1, 8, kernel_size=(5, 5), stride=(2, 2), padding=(2, 2), bias=False) (1): GeneralRelu() (2): RunningBatchNorm() ) (1): Sequential( (0): Conv2d(8, 16, kernel_size=(3, 3), stride=(2, 2), padding=(1, 1), bias=False) (1): GeneralRelu() (2): RunningBatchNorm() ) (2): Sequential( (0): Conv2d(16, 32, kernel_size=(3, 3), stride=(2, 2), padding=(1, 1), bias=False) (1): GeneralRelu() (2): RunningBatchNorm() ) (3): Sequential( (0): Conv2d(32, 64, kernel_size=(3, 3), stride=(2, 2), padding=(1, 1), bias=False) (1): GeneralRelu() (2): RunningBatchNorm() ) (4): Resblock( (conv1): Sequential( (0): Conv2d(64, 64, kernel_size=(3, 3), stride=(2, 2), padding=(1, 1), bias=False) (1): BatchNorm2d(64, eps=1e-05, momentum=0.1, affine=True, track_running_stats=True) ) (conv2): Sequential( (0): Conv2d(64, 64, kernel_size=(3, 3), stride=(2, 2), padding=(1, 1), bias=False) (1): BatchNorm2d(64, eps=1e-05, momentum=0.1, affine=True, track_running_stats=True) ) ) (5): AdaptiveAvgPool2d(output_size=1) (6): Lambda() (7): Dropout(p=0.4, inplace=False) (8): Linear(in_features=64, out_features=10, bias=True) ) . #collapse %time run.fit(1, learn) . . train: [34.587845, tensor(0.3369, device=&#39;cuda:0&#39;)] valid: [96743292.928, tensor(0.4051, device=&#39;cuda:0&#39;)] CPU times: user 3min 41s, sys: 1.03 s, total: 3min 42s Wall time: 3min 43s . This solves the small batch size issue! . What can we do in a single epoch? . Now let&#39;s see with a decent batch size what result we can get. . Jump_to lesson 10 video . #collapse data = DataBunch(*get_dls(train_ds, valid_ds, 16), c) . . #collapse learn,run = get_learn_run(nfs, data, 64,1, 0.9, conv_rbn, cbs=cbfs +[partial(ParamScheduler,&#39;lr&#39;, sched_lin(1., 0.2))]) . . Sequential( (0): Resblock( (conv1): Sequential( (0): Conv2d(64, 64, kernel_size=(3, 3), stride=(2, 2), padding=(1, 1), bias=False) (1): BatchNorm2d(64, eps=1e-05, momentum=0.1, affine=True, track_running_stats=True) ) (conv2): Sequential( (0): Conv2d(64, 64, kernel_size=(3, 3), stride=(2, 2), padding=(1, 1), bias=False) (1): BatchNorm2d(64, eps=1e-05, momentum=0.1, affine=True, track_running_stats=True) ) ) ) [Sequential( (0): Conv2d(1, 8, kernel_size=(5, 5), stride=(2, 2), padding=(2, 2), bias=False) (1): GeneralRelu() (2): RunningBatchNorm() ), Sequential( (0): Conv2d(8, 16, kernel_size=(3, 3), stride=(2, 2), padding=(1, 1), bias=False) (1): GeneralRelu() (2): RunningBatchNorm() ), Sequential( (0): Conv2d(16, 32, kernel_size=(3, 3), stride=(2, 2), padding=(1, 1), bias=False) (1): GeneralRelu() (2): RunningBatchNorm() ), Sequential( (0): Conv2d(32, 64, kernel_size=(3, 3), stride=(2, 2), padding=(1, 1), bias=False) (1): GeneralRelu() (2): RunningBatchNorm() ), Resblock( (conv1): Sequential( (0): Conv2d(64, 64, kernel_size=(3, 3), stride=(2, 2), padding=(1, 1), bias=False) (1): BatchNorm2d(64, eps=1e-05, momentum=0.1, affine=True, track_running_stats=True) ) (conv2): Sequential( (0): Conv2d(64, 64, kernel_size=(3, 3), stride=(2, 2), padding=(1, 1), bias=False) (1): BatchNorm2d(64, eps=1e-05, momentum=0.1, affine=True, track_running_stats=True) ) ), AdaptiveAvgPool2d(output_size=1), Lambda(), Dropout(p=0.4, inplace=False), Linear(in_features=64, out_features=10, bias=True)] . #collapse %time run.fit(1, learn) . . Batch Batch Batch Batch Batch Batch Batch Batch Batch Batch Batch Batch Batch Batch Batch Batch Batch Batch Batch Batch Batch Batch Batch Batch Batch Batch Batc
…
t&#39;s because we want to use a larger filter in order to perform useful computation that reduces the amount of actvations and get useful features that way. . #collapse_show def get_runner(model, data, lr=0.6, cbs=None, opt_func=None, loss_func = F.cross_entropy): if opt_func is None: opt_func = optim.SGD opt = opt_func(model.parameters(), lr=lr) learn = Learner(model, opt, loss_func, data) return learn, Runner(cb_funcs=listify(cbs)) . . #collapse model = get_cnn_model(data, nfs) learn,run = get_runner(model, data, lr=0.4, cbs=cbfs) . . #collapse_show model . . Sequential( (0): Sequential( (0): Conv2d(1, 8, kernel_size=(5, 5), stride=(2, 2), padding=(2, 2)) (1): ReLU() ) (1): Sequential( (0): Conv2d(8, 16, kernel_size=(3, 3), stride=(2, 2), padding=(1, 1)) (1): ReLU() ) (2): Sequential( (0): Conv2d(16, 32, kernel_size=(3, 3), stride=(2, 2), padding=(1, 1)) (1): ReLU() ) (3): Sequential( (0): Conv2d(32, 32, kernel_size=(3, 3), stride=(2, 2), padding=(1, 1)) (1): ReLU() ) (4): AdaptiveAvgPool2d(output_size=1) (5): Lambda() (6): Linear(in_features=32, out_features=10, bias=True) ) . #collapse run.fit(3, learn) . . train: [2.3160621875, tensor(0.1493, device=&#39;cuda:0&#39;)] valid: [2.276257421875, tensor(0.1650, device=&#39;cuda:0&#39;)] train: [1.86434125, tensor(0.3412, device=&#39;cuda:0&#39;)] valid: [0.696328564453125, tensor(0.7789, device=&#39;cuda:0&#39;)] train: [0.5320141015625, tensor(0.8298, device=&#39;cuda:0&#39;
…
